…
train Loss : 0.7230 Acc : 0.7353
val Loss : 0.7451 Acc : 0.7059
Epoch 7/10
----------
train Loss : 0.6805 Acc : 0.7463
val Loss : 0.6926 Acc : 0.7353
Epoch 8/10
----------
train Loss : 0.6056 Acc : 0.7849
val Loss : 0.6001 Acc : 0.7647
Epoch 9/10
----------
train Loss : 0.5380 Acc : 0.8088
val Loss : 0.5864 Acc : 0.7353
Epoch 10/10
----------
train Loss : 0.5444 Acc : 0.8235
val Loss : 0.5542 Acc : 0.7059
Best val acc: 0.764706

Final Validation Accuracy: 0.7059
Saved model to model_lr0.0001_optAdam_drop0.6_acc0.7059.pth
Best Model: AlexNet(
  (features): Sequential(
    (0): Conv2d(3, 64, kernel_size=(11, 11), stride=(4, 4), padding=(2, 2))
    (1): ReLU(inplace=True)
    (2): MaxPool2d(kernel_size=3, stride=2, padding=0, dilation=1, ceil_mode=False)
    (3): Conv2d(64, 192, kernel_size=(5, 5), stride=(1, 1), padding=(2, 2))
    (4): ReLU(inplace=True)
    (5): MaxPool2d(kernel_size=3, stride=2, padding=0, dilation=1, ceil_mode=False)
    (6): Conv2d(192, 384, kernel_size=(3, 3), stride=(1, 1), padding=(1, 1))
    (7): ReLU(inplace=True)
    (8): Conv2d(384, 256, kernel_size=(3, 3), stride=(1, 1), padding=(1, 1))
    (9): ReLU(inplace=True)
    (10): Conv2d(256, 256, kernel_size=(3, 3), stride=(1, 1), padding=(1, 1))
    (11): ReLU(inplace=True)
    (12): MaxPool2d(kernel_size=3, stride=2, padding=0, dilation=1, ceil_mode=False)
  )
  (avgpool): AdaptiveAvgPool2d(output_size=(6, 6))
  (classifier): Sequential(
    (0): Dropout(p=0.5, inplace=False)
    (1): Linear(in_features=9216, out_features=4096, bias=True)
    (2): ReLU(inplace=True)
    (3): BatchNorm1d(4096, eps=1e-05, momentum=0.1, affine=True, track_running_stats=True)
    (4): Dropout(p=0.5, inplace=False)
    (5): Linear(in_features=4096, out_features=1024, bias=True)
    (6): ReLU(inplace=True)
    (7): BatchNorm1d(1024, eps=1e-05, momentum=0.1, affine=True, track_running_stats=True)
    (8): Dropout(p=0.5, inplace=False)
    (9): Linear(in_features=1024, out_features=5, bias=True)
  )
)
Best Parameters: {'learning_rate': 0.001, 'optimizer': 'Adam', 'dropout_rate': 0.5}
Best Validation Accuracy: 0.8529